Final_project/CNN-python/trained_model_CNNv3.pth (torch, 3039 bytes, 2 tensors)

weight f4 [1, 1, 7, 7]
0	0xbf909ee2	-1.1298487
1	0xbe8b69c5	-0.27229133
2	0x3e9304d6	0.28714627
3	0x3ebff77f	0.37493512
4	0x3f684923	0.907366
5	0x3e129d7d	0.1431789
6	0x3f08e5a2	0.5347539
7	0xbe8430c2	-0.2581845
8	0xbed9255e	-0.4241132
9	0xbdd9d20d	-0.10635767
10	0xbeaec048	-0.34131074
11	0x3ce8c82d	0.028415764
12	0x3e5f3016	0.21795687
13	0x3f90160c	1.1256728
14	0x3db1e962	0.08687092
15	0xbe03f5b3	-0.12886696
16	0xbe3b54e7	-0.18294106
17	0x3c81af8c	0.015830778
18	0x3e196205	0.14978798
19	0x3e852886	0.2600748
20	0x3fe95782	1.822983
21	0x3caaadd2	0.020834837
22	0xbe73180e	-0.23739645
23	0xbd9bcfce	-0.07607995
24	0x3d0c6d27	0.034283783
25	0x3eab80ca	0.33496696
26	0x3dfb0942	0.12257625
27	0x3fc0e829	1.507085
28	0x3dbd76c4	0.09251168
29	0xbddb8204	-0.10718158
30	0x3de9ba6c	0.1141251
31	0x3e27671a	0.16347924
32	0x3e4b6785	0.19863708
33	0x3db45ce5	0.08806781
34	0x3f997cab	1.1991171
35	0x3e44540c	0.19172686
36	0xbe2cee68	-0.1688782
37	0xbe2c6ae6	-0.16837654
38	0x3e44dc64	0.19224697
39	0x3dbd1396	0.09232251
40	0xbe766b93	-0.24064474
41	0x3f309b6d	0.6898716
42	0x3dee47d7	0.11634796
43	0x3e1ff7d0	0.15621877
44	0x3ea7b666	0.32756346
45	0x3ee79c56	0.45236462
46	0xbc88d449	-0.016702788
47	0xbcfce9fa	-0.030873287
48	0x3f90ec5c	1.1322131

weight f4 [3, 16]
0	0xbf95df45	-1.1708761
1	0xbde1a8f2	-0.11018552
2	0xbe094842	-0.1340647
3	0xbd8a5d82	-0.067561164
4	0x3e9b6362	0.3034926
5	0x3e6ae65c	0.22939438
6	0x3e67aab7	0.22623716
7	0xbd88b4fb	-0.06675144
8	0x3f3145f5	0.6924737
9	0xbf4e3fd4	-0.80566144
10	0x3f49a6a4	0.787699
11	0xbf77a68a	-0.96738493
12	0xbeece428	-0.4626782
13	0x3f0d03b9	0.55083805
14	0xbc9e948a	-0.019357938
15	0xbf1d34e7	-0.6140885
16	0x3f15a733	0.5845825
17	0xbf20bdb0	-0.6278944
18	0xbe28d4fc	-0.16487497
19	0x3fafd8ec	1.3738074
20	0xbecb6ede	-0.39733022
21	0x3ca265be	0.019823905
22	0xbf111b30	-0.5668211
23	0xbd9e885e	-0.07740854
24	0xbf14f0bd	-0.5817984
25	0x3e7a8c3d	0.24467559
26	0xbfca26b5	-1.5793062
27	0x3edbbe49	0.42918614
28	0x3e537f63	0.20654063
29	0xbe9151a8	-0.2838261
30	0xbe6749d6	-0.2258676
31	0x3f952715	1.1652552
32	0xbe77ed93	-0.24211721
33	0x3f0cf28b	0.5505759
34	0xbe8dc5d3	-0.2768999
35	0xbfdc3e35	-1.7206484
36	0x3d806052	0.06268372
37	0xbec6f10f	-0.38855788
38	0x3c5fe701	0.0136659155
39	0x3d05980b	0.032615703
40	0x3f152ac8	0.58268404
41	0x3e9d83fe	0.30764765
42	0x3f338348	0.70122194
43	0x3e8818b2	0.2658134
44	0xbdb98824	-0.0905917
45	0xbde3d70d	-0.11125002
46	0x3e630c06	0.22172555
47	0xbf71b139	-0.94411045
