Final_project/CNN-python/trained_model_CNNv2_stateDict.pth (torch, 2147 bytes, 2 tensors)

conv.weight f4 [1, 1, 5, 5]
1.6078357 0.905628 -1.5476013 0.10358153 1.0571198 0.09920546 -0.6136252 -1.2923762
-0.025003506 1.535881 -0.3848492 -1.3874323 -0.42812532 1.0324016 0.9363696 -0.777151
-0.20774338 0.16168241 0.3362468 0.43418807 -0.7276107 -0.41175374 1.1440015 1.30449
0.6049165
00000000: 8fcd cd3f 3dd7 673f cd17 c6bf 8e22 d43d
00000010: b44f 873f 3b2c cb3d 8b16 1dbf 956c a5bf
00000020: 27d4 ccbc c097 c43f f40a c5be 6297 b1bf
00000030: 3e33 dbbe bc25 843f ebb5 6f3f 5ef3 46bf
00000040: aeba 54be 1390 253e 8a28 ac3e e64d de3e
00000050: b244 3abf 63d1 d2be a46e 923f 87f9 a63f
00000060: cfdb 1a3f

NN.weight f4 [10, 16]
-0.2532063 0.17629689 0.033075783 -0.47427604 0.17980543 0.018082323 -0.36827195 0.12658723
0.41513607 -0.53905976 0.1372625 0.14233115 0.35410675 -0.07406306 -0.06996557 0.031326063
-0.15926188 -0.35504797 0.21962051 -0.11674249 -0.57140577 0.39163038 -0.5837314 -2.2891018
-0.18043417 0.8024385 -0.8572691 -1.0433885 0.5603805 0.2068646 0.36552522 -0.32464638
0.38272175 0.31522924 -0.0976051 -0.337842 -0.45496345 -0.7566022 0.41227794 -0.10586438
0.27502617 0.51030844 -0.42627698 -0.14820608 0.27353436 -0.31160402 -0.16559952 0.9430263
0.5531332 -0.2575541 0.018303018 -0.5207824 -0.5648177 0.4983955 0.18741962 0.05207318
-0.32589373 -0.8745939 0.3164286 -0.15403149 0.52656454 -0.14996037 0.13970673 0.528528
0.029047012 0.07277721 0.3940524 0.47571856 0.19396588 -0.04467391 0.057100393 -0.24263208
0.42945305 -0.20178428 -0.018728603 0.20346284 -0.9753758 -0.23872371 0.08269092 -1.1103778
0.0646404 -0.20345806 0.1440252 0.5675192 0.15523875 0.7619617 -1.3689717 -0.108259365
-0.028549874 -0.4159213 0.17904377 -0.20482248 0.46254975 -0.001007932 0.28212693 0.2853973
-0.06574278 0.60014045 0.38638026 0.36505368 0.06548232 -0.12640464 -0.83576447 -0.337393
0.28471756 0.6233338 0.23333102 0.42076808 -0.56006575 -0.71558726 -0.6956562 0.2145527
0.0073362417 -0.695499 -1.0236576 -0.19513716 0.48066884 -0.17464522 1.0669334 -0.21911527
-0.36777556 -0.7348187 0.2418967 -0.009865594 0.101241924 0.5374613 -0.06392787 -1.4599276
0.061950564 0.29045454 -0.086265996 -0.11243965 -0.055591464 -0.44006056 -0.1815752 0.15082788
0.032037605 0.38692018 -0.61049443 -0.10668194 0.32969657 0.09770861 0.69451565 -0.03765888
-0.3876307 -0.34885725 -0.7288371 -1.0243807 0.5431206 0.11113443 0.35520267 -0.01894566
0.017908387 -0.31980267 0.39369738 -0.2108585 -0.09794 0.07320549 0.075420834 -1.2935622
00000000: 42a4 81be 2c87 343e 797a 073d 4fd4 f2be
00000010: ea1e 383e 6121 943c 248e bcbe 15a0 013e
00000020: b78c d43e d2ff 09bf 8a8e 0c3e 42bf 113e
00000030: 7b4d b53e 60ae 97bd 1c4a 8fbd c24f 003d
00000040: 8c15 23be d9c8 b5be 33e4 603e b016 efbd
00000050: a647 12bf c783 c83e 6c6f 15bf a580 12c0
00000060: bcc3 38be 9c6c 4d3f fd75 5bbf c18d 85bf
00000070: 1975 0f3f 50d4 533e 1f26 bb3e 0d38 a6be
00000080: 1bf4 c33e ba65 a13e 2fe5 c7bd a0f9 acbe
00000090: f8f0 e8be afb0 41bf 1816 d33e 6dcf d8bd
000000a0: 3bd0 8c3e 93a3 023f fa40 dabe 56c3 17be
000000b0: b20c 8c3e 908a 9fbe ec92 29be 2c6a 713f
000000c0: 239a 0d3f 22de 83be 36f0 953c ff51 05bf
000000d0: e597 10bf b22d ff3e eeea 3f3e b04a 553d
000000e0: 8bdb a6be 63e5 5fbf ee02 a23e 6eba 1dbe
000000f0: efcc 063f 368f 19be 480f 0f3e 9c4d 073f
00000100: 00f4 ed3c 380c 953d 3cc1 c93e 6291 f33e
00000110: fe9e 463e fdfb 36bd 1ae2 693d 8b74 78be
00000120: 45e1 db3e 8aa0 4ebe ba6c 99bc 9058 503e
00000130: 3ab2 79bf fd73 74be db59 a93d dc20 8ebf
00000140: 3062 843d 4f57 50be 587b 133e f048 113f
00000150: e8f6 1e3e ec0f 433f 773a afbf 16b7 ddbd
00000160: 6de1 e9bc a3f3 d4be 4057 373e fcbc 51be
00000170: 52d3 ec3e 961c 84ba f172 903e 981f 923e
00000180: 27a4 86bd cea2 193f a2d3 c53e 51e8 ba3e
00000190: 981b 863d 3870 01be a9f4 55bf c6be acbe
000001a0: 80c6 913e ce92 1f3f 54ee 6e3e ea6e d73e
000001b0: 7860 0fbf ba30 37bf 8616 32bf b4b3 5b3e
000001c0: db64 f03b 390c 32bf 3607 83bf 09d2 47be
000001d0: 3a1a f63e 32d6 32be 4691 883f c15f 60be
000001e0: 144d bcbe 141d 3cbf c5b3 773e 4da3 21bc
000001f0: ed57 cf3d 1097 093f 9dec 82bd e8de babf
00000200: e0bf 7d3d 75b6 943e 3aac b0bd c246 e6bd
00000210: e0b3 63bd 9e4f e1be d9ee 39be a072 1a3e
00000220: dd39 033d 671a c63e 5d49 1cbf 107c dabd
00000230: fdcd a83e 741b c83d c7cb 313f 3340 1abd
00000240: 8877 c6be 6b9d b2be 1195 3abf e81e 83bf
00000250: f409 0b3f 739a e33d 20dd b53e ee33 9bbc
00000260: 9cb4 923c 2dbd a3be b492 c93e 4aeb 57be
00000270: c494 c8bd c3ec 953d 3d76 9a3d 7293 a5bf
